Assign1/weight.npy (npy, 1360 bytes, 1 tensors)

array f8 [154]
000000 e6 25 48 a3 22 0a bf 3f b4 61 f2 a1 ce a4 ab 3f
       0.12124840246556054 0.053991753834626094
000010 cc 3e 81 5f 21 8e a4 3f 3f 53 6b c0 25 54 38 bf
       0.040146868618305825 -0.0003712265173992264
000020 be f9 3f 1d 48 d0 a3 bf 6a d4 bf 68 d3 df 93 3f
       -0.03869843823484896 0.019408515232460045
000030 5e 08 bc 35 85 d9 99 bf d8 e2 2b e9 d7 3b a5 bf
       -0.025243836788839118 -0.04147219392138418
000040 c5 d0 cd 13 b8 93 a7 bf 79 77 fe 7e 70 d2 c0 3f
       -0.04604888192889826 0.1314221019828741
000050 06 ec 46 ca f9 ee c6 3f ec fe d8 d4 06 93 c0 3f
       0.1791679608994345 0.12948689835501825
000060 d1 32 11 57 f6 fa b4 3f ab 73 2d 93 ad 05 be 3f
       0.08195438028014769 0.11727413981630146
000070 43 c9 bc c6 66 60 b8 3f 65 f9 ee 62 44 3b bb 3f
       0.09522096969593456 0.10637309470528107
000080 7e bf 15 f6 c5 49 c5 3f e1 a9 99 fd e4 08 c9 3f
       0.1663138820254026 0.1955839384348357
000090 5c 29 74 48 11 b5 d9 3f ef d9 95 21 b2 e0 cf 3f
       0.4016764838749134 0.24904467239294045
0000a0 ae 94 94 42 93 d8 c4 3f 6e 04 74 30 78 b6 a6 bf
       0.1628593516444758 -0.04436088172406803
0000b0 36 12 f8 26 1e 56 a6 bf 0e 3b df b2 94 20 d4 3f
       -0.04362577653595105 0.3144885775372338
0000c0 65 22 18 bb 6d e2 cf 3f a2 18 c2 ad 3a 0a fb 3f
       0.2490975535913719 1.689997366660045
0000d0 5a a8 c3 45 dd 2e df bf 01 08 5f bb fc 97 e6 bf
       -0.4872353726665374 -0.7060531291574536
0000e0 07 21 59 80 69 3d d5 bf de cd 0f 22 36 47 d3 bf
       -0.3318732980155947 -0.30122140241948425
0000f0 f8 c6 58 39 8d ad d1 bf c1 fe 0a e1 58 82 e5 bf
       -0.2762177524592597 -0.6721615214700806
000100 18 9a 7a 22 db 1b dd bf a8 9f fa 0d 97 74 e3 bf
       -0.454825194998564 -0.6079821846988027
000110 26 6a 46 98 cc d9 f0 3f 7d a7 94 9f 21 94 66 bf
       1.0531736324543401 -0.0027561814028062557
000120 77 8e 7f 46 c4 8e 4c bf dc 5f 66 f7 ea 99 6b 3f
       -0.000871511304464125 0.0033692921817411858
000130 e5 8b 48 9d 34 50 76 3f 13 98 90 9e 16 9a 6f 3f
       0.0054475836991825 0.003857654741767477
000140 50 ab dd bc 39 3e 92 bf 34 54 bd 54 6a 3e b4 3f
       -0.01781549659009879 0.0790773827441889
000150 86 fe 6b 1c 61 ba b9 bf f4 24 4a 5c 13 3f 7e bf
       -0.10050017303364642 -0.007384372355440084
000160 ca 44 a0 af 92 5c 7b 3f e8 6c d6 22 05 d2 83 bf
       0.006680081360188337 -0.009677925229701193
000170 f7 dc dd ab 35 8c 81 3f 32 6e 41 01 fb 56 89 bf
       0.008568209941343314 -0.012372933364694114
000180 69 36 b1 3b 18 ce 9d bf 1e d1 57 9c c9 cf 96 3f
       -0.029106501239132863 0.022277021567746684
000190 ac ef 76 af df 01 b8 bf 04 df 1a b7 ea a3 ba 3f
       -0.09377859147838191 0.1040636727365119
0001a0 a7 5c 86 9a 3d 9f 7a bf 2b 01 5f 0c 0b b0 92 3f
       -0.006499519957649336 0.0182496763516166
0001b0 04 9c cd 6d 62 95 8d bf f3 fd f6 92 c8 fd 61 bf
       -0.014445084548880167 -0.002196208711864983
0001c0 0c 1f 02 40 7d f7 89 bf 09 4f dc a9 c8 b9 6d bf
       -0.012679079547765613 -0.003628627701695812
0001d0 2b 17 fe 82 16 42 ac bf 5e 83 79 12 ff 21 b0 3f
       -0.05519171093969385 0.06301874352494738
0001e0 b8 1e 7a 32 86 2e 69 bf 2f bc 00 27 d3 3b 71 3f
       -0.0030739422834960804 0.004207444013487423
0001f0 23 1b 5a 18 b2 e3 7d bf 82 8c 5c 27 42 d2 80 3f
       -0.007297225650865244 0.008213536096780997
000200 9d 8f a8 f5 ee db 81 bf 14 62 bc 40 4c 3e 92 bf
       -0.008720270988369633 -0.017815772486843143
000210 ba 0d a7 9a d1 2f 64 3f 09 ff f7 1a d9 6f ae bf
       0.002464208014517158 -0.059447083036500876
000220 56 6f c6 ca 31 c6 b5 3f 75 98 61 b9 57 35 60 bf
       0.08505545807423451 -0.0019785607683387393
000230 4c e9 a3 9b 83 87 51 3f 19 64 3e 8b 05 5f 3f 3f
       0.0010699067339020206 0.0004786861929858013
000240 fa 32 f7 6f 2a 6b 70 3f 06 07 06 ea 43 ab 50 3f
       0.004008451243362238 0.0010173953270115623
000250 4c 4b 60 47 fc 82 6a bf 86 ff 14 a5 d6 a8 5c bf
       -0.003236286861473847 -0.0017492385998849349
000260 14 cb e4 07 c0 65 76 3f 96 77 54 cf 13 61 66 3f
       0.0054681302265631344 0.002731836978127465
000270 2a c1 d6 36 6e 33 6e 3f c5 3d de b0 35 64 92 3f
       0.0036866333600401773 0.017960394783185913
000280 ac 6b 36 00 72 c8 93 bf 1b 28 e0 3c 67 df 87 bf
       -0.01931932569787491 -0.01165657667663216
000290 6d eb 29 04 b5 b4 b9 3f f0 d9 a5 0d a9 81 bc bf
       0.1004136214414026 -0.1113534601516688
0002a0 ca 33 07 be 0b f3 bc 3f 60 3e a7 b6 b3 84 e9 3f
       0.11308358563765278 0.7974489753195932
0002b0 e8 4c 11 50 9c 3f 86 bf f4 81 55 96 05 51 a6 3f
       -0.010863515084713574 0.04358689746982583
0002c0 1e 91 ed 34 ff c5 a0 bf 1d eb 0e 18 f5 f8 5b 3f
       -0.03276059647649475 0.001707305287921463
0002d0 42 cb 96 84 94 f7 a6 3f 1b 84 81 01 3f 3c 84 bf
       0.04485763662832777 -0.009880535348374455
0002e0 2c 24 45 3c 45 14 99 bf ee 00 bb ea 75 d4 ba bf
       -0.02449138813361544 -0.10480439167713815
0002f0 a3 cb cc 8a de 6f 83 3f 38 17 1e fa 15 6c 88 3f
       0.009490717516745855 0.011924907393914816
000300 1d 96 12 00 fb cb 82 bf 72 58 77 40 ac ba 56 bf
       -0.009178124370303792 -0.0013872797152223696
000310 d3 1c 33 5f 4d 52 8e 3f 56 d7 d4 f8 b2 08 98 bf
       0.01480541655327131 -0.023470684468711887
000320 2e 86 f6 4d a3 33 87 bf 5d 85 52 04 d9 85 6b 3f
       -0.011328960243932231 0.0033597220049876157
000330 4d ed 63 4e 4a b9 92 bf b2 f2 19 ab 8e 5b 68 3f
       -0.01828495124298728 0.0029733454219339145
000340 42 2a 2a 90 3f 4b a5 bf d4 d9 2e fb 72 0d 7c bf
       -0.04158972391913497 -0.006848763604401193
000350 39 bf 6e 68 22 32 8c 3f 93 31 b3 01 65 2a 96 bf
       0.01376749879076976 -0.021646097401388408
000360 76 cf 54 67 0a 8c 7d 3f 72 5e d7 8e 06 d2 96 bf
       0.007213631285868041 -0.022285559147205487
000370 d0 9a a4 d3 7a df aa 3f ad 5e e4 09 fb 4e c0 3f
       0.05248626550228652 0.12741029723178113
000380 ef 50 87 d0 20 d7 be 3f 99 1f 8a 46 3c 37 c2 3f
       0.12047009554891351 0.1423106522017832
000390 bf d7 55 fe 12 4a b5 3f 80 dd 8a 16 c1 ab b2 3f
       0.08316153249128798 0.0729332618747005
0003a0 f5 36 95 ea 67 58 a8 3f 85 11 15 c0 b1 5b ba 3f
       0.04754948366699622 0.10296164454945796
0003b0 04 c8 02 6f e7 f4 be 3f 91 bc be ea b3 9f cf 3f
       0.12092443905092415 0.24706124269639365
0003c0 28 22 8f c6 ba f0 37 bf 9d f0 9b b7 77 e5 55 3f
       -0.0003653007502717764 0.001336447631216798
0003d0 76 47 65 ec c2 b1 37 3f 6e 01 0f ab dd 9c 55 bf
       0.0003615475547081784 -0.001319138024186452
0003e0 d3 8a 68 90 ec 56 62 bf 41 fa ca ec 00 1c 54 3f
       -0.002238714255569854 0.0012273797066623268
0003f0 e4 d6 3e 57 85 9e 5c 3f 04 71 e0 42 cc fb 50 3f
       0.0017467786937976288 0.00103659579645582
000400 fa 03 1d 54 6a 57 47 3f 57 43 67 97 b6 04 3e 3f
       0.0007123250181636503 0.00045804460333181057
000410 4e 41 ce 44 0d 4c 55 bf e4 1f ec b8 83 bb 43 3f
       -0.0012998704507688088 0.0006021874595214497
000420 ae 1a d0 54 ab 69 63 3f 72 e3 01 fe 1d 5d 50 bf
       0.002369722968526964 -0.0009987633602845628
000430 85 17 55 46 65 21 31 3f 4f f3 da 48 9d 72 62 bf
       0.0002613899472020331 -0.002251918026415479
000440 5e d0 b7 95 b8 98 66 3f 50 3d 7f 0b 36 7e a7 bf
       0.0027583699390963242 -0.0458847893747768
000450 cf 4d ae 9e 33 25 b8 bf 90 69 f0 b4 11 c2 a2 3f
       -0.09431765197796625 0.0366368802426279
000460 b7 6b 57 e1 3e 5b 7b 3f 6e 26 03 6f da 78 b1 bf
       0.006678815484941695 -0.0682503243471275
000470 e1 2d 50 de 9c 9d 98 3f 65 12 fb 54 54 c9 c9 3f
       0.02403874499218073 0.20145658635569244
000480 dd fe 17 ed 58 9c d8 bf 73 65 e6 e0 e5 f1 c3 bf
       -0.38454268602070646 -0.1558196399826489
000490 73 80 b7 71 77 8e 94 3f f1 a0 ac c5 b1 cf b8 3f
       0.02007471686908997 0.09691916538270441
0004a0 d5 35 f5 fc 24 6b a0 3f cb d6 54 05 21 79 b0 3f
       0.03206744754661953 0.06434828167115396
0004b0 1f c5 52 49 55 bf b8 bf 90 a1 3e a0 bb 70 a1 bf
       -0.09666951217765928 -0.03406320887671932
0004c0 a7 7d a0 d2 3d 82 c7 3f b9 93 c1 de cb ac b3 bf
       0.18366215500371405 -0.07685541332609959
